vww_96_grayscale_quantized.tflite (tflite, 473376 bytes, 58 tensors)

sequential_4/sequential_1/model1/conv2d_27/Conv2D/ReadVariableOp/resource f4 [1, 3, 3, 8]
0	0xbf03f5ba	-0.51546824
1	0x3ddd08aa	0.10792668
2	0xbe777e79	-0.24169339
3	0x3e53366f	0.20626234
4	0xbf01daa6	-0.50724256
5	0x3e354d56	0.17705283
6	0x3da9804c	0.08276424
7	0x3bfecbfe	0.0077757826
8	0x3ee80923	0.4531947
9	0xbe5d95a2	-0.21639112
10	0xbf439a81	-0.7640763
11	0x3e2f71ae	0.17133209
12	0xbf59d782	-0.85094464
13	0x3e8d2266	0.27565306
14	0x3e8a15d6	0.26969784
15	0x3d862614	0.065502316
16	0x3f79fc31	0.9765044
17	0xbec51084	-0.38489163
18	0xbe3e8c6d	-0.18608256
19	0xbd339521	-0.043843392
20	0x3f692a68	0.9108033
21	0x3eb241ca	0.34815818
22	0x3eef3ea0	0.46727467
23	0x3ddb1e3f	0.10699128
24	0xbf5fcf3e	-0.874256
25	0x3c0e1f3b	0.008674438
26	0xbdcb8ad5	-0.099385895
27	0x3e30b587	0.17256747
28	0xbfedeb6f	-1.8587474
29	0x3e053a59	0.13010539
30	0xbeb3b81c	-0.35101402
31	0x3e8d6263	0.27614126
32	0xc00bd1aa	-2.1846719
33	0xbe0a8b80	-0.13529778
34	0xbf0d6bdd	-0.5524271
35	0x3e762584	0.24037749
36	0x3eeb367c	0.45940006
37	0x3e3a32ed	0.18183489
38	0x3ec16c5a	0.37777978
39	0x3e16a937	0.14712988
40	0x3ec1ac98	0.3782699
41	0xbe95cda6	-0.2925846
42	0x3e2afac4	0.16697222
43	0x3e8b6f68	0.27233434
44	0x3fb58bda	1.4183304
45	0x3ec8b333	0.39199218
46	0x3ef4adf6	0.47788972
47	0x3dd53241	0.10409976
48	0x3ee88929	0.45417145
49	0xbe844d7a	-0.2584036
50	0x3e26612f	0.1624801
51	0x3d8aa6e4	0.06770113
52	0xbf877c23	-1.0584759
53	0x3e5c4b0d	0.21513005
54	0xbea3ab63	-0.31966695
55	0x3e8f6c50	0.28012323
56	0xbf00568d	-0.50132066
57	0xbeb66802	-0.35626227
58	0x3d7edcc9	0.062222276
59	0x3dc34992	0.09535517
60	0x3f979fe6	1.1845672
61	0x3e382cac	0.17985791
62	0x3db03ba1	0.08605123
63	0x3dbc92dd	0.092076994
64	0xbe43f277	-0.19135462
65	0xbedd5378	-0.43227744
66	0x3e628621	0.22121479
67	0x3c1c30f3	0.009533155
68	0x3e8cc261	0.2749205
69	0x3e06f918	0.13180959
70	0x3ec54fab	0.38537344
71	0x3cb5bbb5	0.022184232

sequential_4/sequential_1/model1/conv2d_27/Conv2D_bias f4 [8]
0	0xbf51c957	-0.81947845
1	0x3e068dfa	0.13140097
2	0x3fd1a163	1.6377376
3	0x3fa0df51	1.2568151
4	0x3fa2b355	1.2710978
5	0x3e1579d8	0.14597261
6	0x3f5dbc82	0.86615765
7	0x3f9c79a1	1.2224618

sequential_4/sequential_1/model1/conv2d_28/Conv2D/ReadVariableOp/resource f4 [16, 1, 1, 8]
0	0x3efd7626	0.49504203
1	0x3bad568a	0.0052898573
2	0xbf445cd8	-0.7670417
3	0x3f34ae2f	0.70578283
4	0x3dec0a7e	0.11525439
5	0xbd7bdafd	-0.06148814
6	0x3e3d83f1	0.18507363
7	0xbedfa4b1	-0.43680337
8	0x3f80cc03	1.006226
9	0x3d5f13cd	0.054462243
10	0xbea91b7f	-0.3302879
11	0x3e9616c4	0.29314244
12	0xbcff5085	-0.031166324
13	0x3dc03044	0.09384206
14	0x3ea50818	0.32232738
15	0xbfaca8c2	-1.3489001
16	0xbe072e1b	-0.13201182
17	0x3e3155e0	0.17317915
18	0x3d2fc0a5	0.04290833
19	0xbe0f1879	-0.1397418
20	0x3fb1f012	1.3901389
21	0x3d021701	0.03176022
22	0xbd882608	-0.06647879
23	0xbe452a7f	-0.19254492
24	0xbe462b28	-0.193524
25	0x3e100720	0.14065218
26	0x3ec612b9	0.3868616
27	0xbfba01c6	-1.4531791
28	0xbea93a37	-0.33052227
29	0xbeee819c	-0.4658326
30	0xbe9b2a1d	-0.30305567
31	0x3e776694	0.24160224
32	0xbe3bd2ae	-0.18342087
33	0xbea54c48	-0.3228476
34	0x3f21710d	0.63063127
35	0x3e86da84	0.2633859
36	0xbf5f8723	-0.8731558
37	0xbe49074c	-0.1963169
38	0xbecacc56	-0.3960902
39	0x3ea1564c	0.31511152
40	0x3c81e7c2	0.015857581
41	0xbeeadfef	-0.45873973
42	0x3faa4ba1	1.330433
43	0xbee3f933	-0.4452606
44	0x3e87bf62	0.265132
45	0x3e927195	0.2860228
46	0x3d488381	0.048953537
47	0x3e4d579d	0.20052953
48	0x3ee9e4c7	0.45682356
49	0xbcd1d1c4	-0.02561272
50	0xbd2ff964	-0.042962447
51	0xbdae8671	-0.085217364
52	0x3f74bc31	0.9559966
53	0xbc827a2d	-0.015927399
54	0xbd23e84d	-0.04001646
55	0xbc9da1ae	-0.019242134
56	0xbf847f11	-1.0351278
57	0xbf0366f1	-0.5132895
58	0x3f0cce1d	0.55002004
59	0x3fb99f41	1.4501725
60	0xbf12b9be	-0.5731467
61	0xbe98f7b0	-0.2987647
62	0xbf1238cf	-0.57117933
63	0x3f27a906	0.65492284
64	0xbe3a64cc	-0.18202513
65	0x3d18e504	0.03732778
66	0xbf2519b9	-0.64492375
67	0x3e96412f	0.29346606
68	0x3f0f1bda	0.55901873
69	0xbda9ab53	-0.082846306
70	0x3e01e74f	0.12685893
71	0x3ef989ec	0.4873804
72	0x3f4c552b	0.79817456
73	0xbe2404b8	-0.16017425
74	0x3f8cf686	1.1012733
75	0x3f53ecf0	0.8278341
76	0x3ecd87cf	0.40142676
77	0x3e11c8ec	0.14236802
78	0xbe1792bd	-0.1480207
79	0xbeb0a2f3	-0.3449932
80	0xbe066294	-0.13123542
81	0x3d5d0e1d	0.053968538
82	0xbdf543b9	-0.11975808
83	0xbd5f57a6	-0.054526947
84	0xbfce9dcb	-1.6141905
85	0xbd808a95	-0.062764324
86	0x3d79df32	0.06100387
87	0xbdb36e75	-0.087613024
88	0xbe345f50	-0.17614484
89	0xbd73d325	-0.059527535
90	0xbcbe302d	-0.023216331
91	0x3f52a9f2	0.82290566
92	0x3dbaf815	0.09129349
93	0x3e272ce4	0.16325718
94	0xbe2f2ec2	-0.1710768
95	0xbedef2d7	-0.43544647
96	0x3ef46e48	0.47740388
97	0x3e7c78a1	0.24655391
98	0xbf4e3538	-0.80549955
99	0xbec1e5e1	-0.37870696
100	0x3f218f35	0.6310914
101	0x3e1a0c46	0.15043744
102	0x3e4b9f94	0.19885093
103	0xbe904514	-0.28177702
104	0x3fb1b8e2	1.3884547
105	0x3ef64e3d	0.48106566
106	0xbf291df3	-0.66061324
107	0x3f94cf7a	1.1625817
108	0x3e674928	0.225865
109	0xbe9c2e2e	-0.30503982
110	0xbec4987d	-0.3839759
111	0x3ac7a6ed	0.0015232243
112	0xbddd7bbd	-0.10814617
113	0xbed18c71	-0.4092746
114	0xbf66f214	-0.9021313
115	0x3d8f5eca	0.070005015
116	0xbf832442	-1.024544
117	0x3e8193fd	0.2530822
118	0xbe69d307	-0.22834407
119	0x3f02daec	0.511153
120	0xbdaf4c15	-0.08559433
121	0x3e8b9f4b	0.27269968
122	0xbfacab69	-1.348981
123	0x3ed35239	0.41273668
124	0xbe35388f	-0.17697357
125	0x3efa215f	0.48853585
126	0xbb80c303	-0.003929497
127	0xbf0050d8	-0.5012336

sequential_4/sequential_1/model1/conv2d_28/Conv2D_bias f4 [16]
0	0xbe257ce7	-0.16160928
1	0x3f251230	0.64480877
2	0xbfdaeea9	-1.7104083
3	0x401a3a14	2.4097948
4	0x3ea41a05	0.320511
5	0xbf97303a	-1.1811593
6	0xbf61217c	-0.8794172
7	0xbfe20bb0	-1.7659817
8	0xbe7b9c92	-0.24571446
9	0xc0721655	-3.782613
10	0x40290fed	2.641597
11	0xbe4363bc	-0.19081014
12	0x3f4407e4	0.7657454
13	0xbfbbf11e	-1.4682958
14	0x400e0f46	2.2196822
15	0x4004ab86	2.072969

sequential_4/sequential_1/model1/conv2d_29/Conv2D/ReadVariableOp/resource f4 [32, 1, 1, 16]
0	0xbe9b56f0	-0.30339766
1	0xbdcfa66d	-0.10139165
2	0x3f0efe2f	0.55856603
3	0x3d94d42c	0.07267031
4	0xbe800535	-0.25003973
5	0x3e7aca86	0.24491319
6	0xbe9eedf2	-0.31040913
7	0xbe8834d2	-0.266028
8	0x3d7806b5	0.06055327
9	0xbe0e7b39	-0.13914193
10	0x3f4d618d	0.80226976
11	0xbd7da051	-0.061920468
12	0x3e89981d	0.26873866
13	0xbca5a361	-0.020219507
14	0x3e7ff321	0.2499509
15	0xbe4fefd3	-0.2030633
16	0x3e2eb14e	0.17059824
17	0xbf0cb93f	-0.54970163
18	0xbcd761a0	-0.026291668
19	0xbf111f1c	-0.56688094
20	0x3e884e97	0.2662246
21	0x3ecaf542	0.39640242
22	0xbe5afdc1	-0.21385862
23	0x3e4544e1	0.19264556
24	0xbd155df3	-0.03646655
25	0xbe04ad1f	-0.12956665
26	0xbd9bc364	-0.07605627
27	0x3e94665c	0.28984344
28	0x3f6ce9a8	0.9254403
29	0x3d7debc8	0.061992437
30	0x3dc2e990	0.09517205
31	0xbe16e9ed	-0.14737673
32	0x3e806100	0.25074005
33	0x3e021f57	0.12707268
34	0xbda19e37	-0.07891505
35	0x3ea0f043	0.31433305
36	0xbe3d7861	-0.18502952
37	0x3d371e34	0.04470654
38	0x3de9a124	0.11407688
39	0xbe5d2398	-0.21595609
40	0xbdfa4730	-0.12220609
41	0xbde963b7	-0.11395972
42	0x3dec9314	0.115514904
43	0xbf6b8204	-0.91995263
44	0xbd84d966	-0.06486778
45	0x3eb0cc59	0.34530905
46	0xbe6e6d00	-0.23283768
47	0x3e27718c	0.16351908
48	0xbb7e39c7	-0.0038791762
49	0xbcbe4898	-0.023227975
50	0xbec6fb87	-0.38863775
51	0xbd9a0563	-0.07520559
52	0x3d144097	0.03619441
53	0xbdbe54f3	-0.092935465
54	0x3ebf88de	0.3740911
55	0x3d8d6930	0.069048285
56	0xbd2d8104	-0.042359367
57	0x3e8f540c	0.2799381
58	0xbef6a940	-0.48176003
59	0x3bac7dc4	0.005264016
60	0x3dd8f5a8	0.1059373
61	0xbde7605d	-0.11297677
62	0xbe265799	-0.16244353
63	0xbda21c29	-0.079155274
64	0x3d4e2141	0.050324682
65	0xbcfd5dfe	-0.030928608
66	0xbd493fd5	-0.04913314
67	0xbf0215a4	-0.5081427
68	0xbe853d56	-0.26023358
69	0x3f3df409	0.74200493
70	0x3e550a82	0.2080479
71	0xbe512575	-0.20424445
72	0xbdd7b4f2	-0.105325595
73	0xbde92259	-0.113835044
74	0x3e520679	0.20510282
75	0x3eb4ce8e	0.3531384
76	0xbdc4b13b	-0.096041165
77	0x3dcd819a	0.10034485
78	0xbcdbe21c	-0.026841216
79	0xbea5b424	-0.32364
80	0x3e2cdd91	0.16881396
81	0xbf021580	-0.50814056
82	0x3eefc0ad	0.46826687
83	0x3ee77fd9	0.45214728
84	0x3f0813c9	0.5315519
85	0x3ef34757	0.47515365
86	0x3da5c793	0.080947064
87	0x3f5b68a7	0.8570656
88	0x3e31c9b1	0.17362095
89	0x3ebd7472	0.37002903
90	0xbe0da0d7	-0.13830887
91	0x3eebc71b	0.46050343
92	0xbe5ba154	-0.2144826
93	0x3e3da020	0.18518114
94	0x3dd9e189	0.106387205
95	0x3df0c57e	0.11756419
96	0xbd5d51da	-0.054033138
97	0xbdb092c7	-0.086217456
98	0xbda505ae	-0.08057724
99	0xbdcce1e5	-0.100040235
100	0x3d77fdf3	0.06054492
101	0xbd217a38	-0.039423198
102	0x3db9e9da	0.09077807
103	0x3d6c1a74	0.057642415
104	0xbe26a2cb	-0.16273038
105	0x3a7b1e9f	0.0009579453
106	0x3e09854b	0.13429753
107	0xbd493ed5	-0.049132187
108	0xbc03bae8	-0.008040167
109	0x3f14cf87	0.5812916
110	0xbc94ffea	-0.018188436
111	0xbdd13394	-0.10214916
112	0xbd0d2d57	-0.034467068
113	0xbe5a3a31	-0.21311261
114	0x3d55543f	0.052082296
115	0x3de2b2dc	0.11069271
116	0x3f273387	0.65313
117	0xbf15cdc4	-0.585171
118	0xbf4393bf	-0.7639732
119	0xbdad49ce	-0.08461343
120	0x3e43e661	0.19130851
121	0xbf2c9dda	-0.6742836
122	0xbd5cc484	-0.05389835
123	0xbe337ee0	-0.17528868
124	0x3f5950ab	0.84888715
125	0x3eb7bc08	0.35885644
126	0x3f088748	0.5333142
127	0xbe91692d	-0.28400555
128	0x3e9d29c4	0.30695927
129	0x3f06a063	0.5258848
130	0x3dbf5be8	0.093437016
131	0x3e3d499b	0.1848511
132	0xbd2dbe2b	-0.042417686
133	0x3c0c6a7c	0.00857031
134	0x3e5502b8	0.20801818
135	0x3e4f7dca	0.20262828
136	0x3ebdc17f	0.37061688
137	0xbe55e808	-0.20889294
138	0x3dd5eb97	0.10445326
139	0xbf35ac5d	-0.7096613
140	0xbc8ab984	-0.016934164
141	0x3f3602bd	0.7109793
142	0x3e20ae4a	0.15691486
143	0xbf12601f	-0.5717792
144	0x3eaea055	0.341067
145	0xbe7bdef3	-0.24596767
146	0x3efb8f68	0.49132848
147	0xbe2130f9	-0.15741338
148	0x3f935765	1.1511046
149	0x3d7b0368	0.061282545
150	0x3d7fba75	0.06243368
151	0xbe44a496	-0.1920341
152	0x3cdcd527	0.026957108
153	0xbe54ff8a	-0.20800605
154	0xbdf27b74	-0.11839953
155	0x3e96859b	0.29398808
156	0x3d863ea2	0.06554915
157	0x3daa9525	0.08329228
158	0x3e88ca94	0.26717055
159	0xbd344bfc	-0.044017777
160	0x3d823a29	0.063587494
161	0xbdf9461b	-0.12171575
162	0x3e14186c	0.14462441
163	0xbe2d4144	-0.16919428
164	0x3e46635d	0.19373842
165	0xbda4f865	-0.0805519
166	0xbf4e0a17	-0.80484146
167	0x3cadfa59	0.02123754
168	0x3d061313	0.032733034
169	0xbef90389	-0.4863551
170	0xbeefdcfa	-0.4684828
171	0x3d96858f	0.07349693
172	0xbdd0703b	-0.10177656
173	0xbdf53c5f	-0.119744055
174	0x3f1fce95	0.62424594
175	0x3f4a0bf2	0.7892448
176	0x3bb27ddc	0.0054471325
177	0xbd85114b	-0.06497439
178	0xbe474844	-0.19461161
179	0xbd9db79e	-0.07701038
180	0xbd6e7ff9	-0.058227513
181	0x3e1ed472	0.15510729
182	0x3d397bf2	0.04528422
183	0xbdc96469	-0.09833605
184	0xbe1596ee	-0.14608356
185	0x3c3ae2cd	0.011406613
186	0x3ea00036	0.3125016
187	0xbed8130f	-0.4220204
188	0x3e44f817	0.19235264
189	0x3f016ee9	0.5055986
190	0xbdb88af9	-0.09010882
191	0xbe15f7e9	-0.14645351
192	0x3e50e2d4	0.20399028
193	0x3f018c4c	0.506047
194	0xbc5024e5	-0.012704109
195	0x3f1a5121	0.6028004
196	0xbe283471	-0.16426255
197	0xbe9582c0	-0.29201317
198	0xbe7d2cef	-0.24724172
199	0x3de09c3c	0.10967299
200	0xbccb6f9d	-0.024833495
201	0x3f2b4c5a	0.6691338
202	0xbe19a9e2	-0.15006211
203	0x3d59482c	0.053047344
204	0xbe9807dd	-0.296935
205	0x3d71db66	0.059047125
206	0xbe32cb3e	-0.17460343
207	0x3eb1f500	0.34757233
208	0x3f067b03	0.5253145
209	0xbec59bf2	-0.3859554
210	0x3f0e2465	0.55524284
211	0x3f1b640f	0.6069955
212	0xbf063a7d	-0.52432996
213	0xbef4b414	-0.4779364
214	0xbf0f3bb2	-0.5595046
215	0xbeb780e9	-0.35840538
216	0xbd35987f	-0.044334885
217	0x3f5a508b	0.8527915
218	0x3f918d69	1.137128
219	0x3dad24d3	0.08454289
220	0xbe9ab643	-0.3021718
221	0xbd8dfc6f	-0.069329135
222	0xbfa2c811	-1.2717305
223	0xbf160b3c	-0.5861089
224	0xbe61ddd4	-0.22057277
225	0x3f8f6ecc	1.1205688
226	0xbe806c79	-0.25082758
227	0xbd5d9550	-0.054097474
228	0x3db867aa	0.09004147
229	0xbbf60164	-0.00750749
230	0x3f27e7de	0.65588176
231	0x3e95bd56	0.29246014
232	0xbf09ef91	-0.53881174
233	0xbecb0ad7	-0.39656708
234	0x3ef9f1f5	0.4881741
235	0xbe7fd9d5	-0.2498544
236	0x3ed37d60	0.4130659
237	0xbf43713c	-0.76344657
238	0x3edfae42	0.43687636
239	0xbe298db5	-0.16557963
240	0xbeb08bf3	-0.34481773
241	0x3e0fce8f	0.1404364
242	0x3d37d3c8	0.044879705
243	0xbf2396ba	-0.63901865
244	0xbf1c2cc4	-0.61005807
245	0xbe0002b7	-0.12501036
246	0xbea2c6c7	-0.3179228
247	0x3f0f224c	0.5591171
248	0x3e601ab6	0.2188519
249	0xbd49a447	-0.049228933
250	0x3f35afd6	0.7097143
251	0xbed83263	-0.42225942
252	0x3e683979	0.22678174
253	0xbee18b76	-0.44051713
254	0xbe85a359	-0.26101187
255	0xbf516881	-0.81800085

sequential_4/sequential_1/model1/conv2d_29/Conv2D_bias f4 [32]
0	0xbf3f1c3b	-0.7465245
1	0x3f69106f	0.910407
2	0x3f735df2	0.95065224
3	0x3fcbb106	1.5913398
4	0xbf2ae020	-0.6674824
5	0xbfc57683	-1.5426792
6	0x3ea03962	0.3129378
7	0x3c04a8c0	0.008096874
8	0xbfa35a4e	-1.2761934
9	0xbffd84f6	-1.9806201
10	0x3f82f827	1.023198
11	0x3f170f78	0.5900798
12	0xbf22c9ed	-0.63589364
13	0x3f854eea	1.0414708
14	0xc003fa47	-2.0621507
15	0x402e2f34	2.721631
16	0xbfa1faa9	-1.265462
17	0xc01f7e32	-2.4920774
18	0xbfc367ed	-1.5266091
19	0x402b4824	2.676278
20	0xbf597b10	-0.84953403
21	0x3fe64cb8	1.7992163
22	0x3e93f1fa	0.2889555
23	0x3fdcc8c6	1.7248771
24	0xc0061268	-2.0948734
25	0x3f1c6780	0.6109543
26	0x3f6afbb1	0.917903
27	0xbf21dc55	-0.63226825
28	0xbeaff404	-0.34365857
29	0x3f4a6c0f	0.79071134
30	0xbe864b51	-0.26229337
31	0x3eeeffbd	0.46679488

sequential_4/sequential_1/model1/conv2d_30/Conv2D/ReadVariableOp/resource i1 [32, 1, 1, 32] scale=0.0077572246 zero_point=0
0	0xff	-0.0077572246
1	0xf6	-0.07757225
2	0xfa	-0.04654335
3	0xe3	-0.22495951
4	0xf0	-0.124115594
5	0xfe	-0.015514449
6	0x59	0.690393
7	0xf8	-0.062057797
8	0xdf	-0.25598842
9	0xfd	-0.023271674
10	0x1b	0.20944506
11	0x01	0.0077572246
12	0x11	0.13187282
13	0xf5	-0.08532947
14	0x03	0.023271674
15	0xf9	-0.054300573
16	0x03	0.023271674
17	0x04	0.031028898
18	0xdf	-0.25598842
19	0x18	0.1861734
20	0x0a	0.07757225
21	0x0c	0.0930867
22	0xe6	-0.20168784
23	0xff	-0.0077572246
24	0xf9	-0.054300573
25	0xfd	-0.023271674
26	0x00	0.0
27	0xfc	-0.031028898
28	0x00	0.0
29	0x7f	0.9851675
30	0xf2	-0.108601145
31	0x0f	0.11635837
32	0x07	0.054300573
33	0xfd	-0.023271674
34	0x25	0.28701732
35	0xf4	-0.0930867
36	0xd9	-0.30253175
37	0x32	0.38786122
38	0xf0	-0.124115594
39	0xf0	-0.124115594
40	0xf2	-0.108601145
41	0xf1	-0.11635837
42	0xee	-0.13963005
43	0x0a	0.07757225
44	0x0e	0.108601145
45	0xf3	-0.10084392
46	0x42	0.51197684
47	0x07	0.054300573
48	0xd7	-0.3180462
49	0xf5	-0.08532947
50	0xb0	-0.620578
51	0xfe	-0.015514449
52	0xf5	-0.08532947
53	0x1c	0.21720229
54	0x34	0.4033757
55	0xfa	-0.04654335
56	0x0b	0.08532947
57	0xf4	-0.0930867
58	0xef	-0.13187282
59	0xba	-0.5430057
60	0x00	0.0
61	0xea	-0.17065895
62	0xe5	-0.20944506
63	0x32	0.38786122
64	0x2d	0.3490751
65	0x0f	0.11635837
66	0xd6	-0.32580343
67	0x36	0.41889012
68	0xe1	-0.24047396
69	0x1b	0.20944506
70	0xfa	-0.04654335
71	0x0a	0.07757225
72	0xff	-0.0077572246
73	0xf2	-0.108601145
74	0x0e	0.108601145
75	0xf3	-0.10084392
76	0x3b	0.45767626
77	0xfb	-0.038786124
78	0x0a	0.07757225
79	0x03	0.023271674
80	0x23	0.27150285
81	0xdc	-0.2792601
82	0x08	0.062057797
83	0xe0	-0.24823119
84	0x03	0.023271674
85	0x1d	0.22495951
86	0xfa	-0.04654335
87	0xe0	-0.24823119
88	0xe8	-0.1861734
89	0x14	0.1551445
90	0x20	0.24823119
91	0x13	0.14738727
92	0xf9	-0.054300573
93	0x15	0.16290171
94	0x1b	0.20944506
95	0x01	0.0077572246
96	0xf5	-0.08532947
97	0xee	-0.13963005
98	0x26	0.29477453
99	0xf3	-0.10084392
100	0x1b	0.20944506
101	0xf3	-0.10084392
102	0x2a	0.32580343
103	0xfa	-0.04654335
104	0x00	0.0
105	0xfd	-0.023271674
106	0x0d	0.10084392
107	0x2f	0.36458954
108	0x15	0.16290171
109	0xca	-0.41889012
110	0xfa	-0.04654335
111	0x0f	0.11635837
112	0xf0	-0.124115594
113	0x02	0.015514449
114	0x02	0.015514449
115	0x15	0.16290171
116	0x00	0.0
117	0xf5	-0.08532947
118	0x28	0.310289
119	0xf0	-0.124115594
120	0x01	0.0077572246
121	0x2c	0.3413179
122	0xf5	-0.08532947
123	0x1a	0.20168784
124	0xf4	-0.0930867
125	0xfd	-0.023271674
126	0x31	0.380104
127	0x1a	0.20168784
128	0x13	0.14738727
129	0xf7	-0.069815025
130	0xfd	-0.023271674
131	0x1f	0.24047396
132	0x14	0.1551445
133	0x4b	0.5817918
134	0x03	0.023271674
135	0x12	0.13963005
136	0x14	0.1551445
137	0xe4	-0.21720229
138	0xe6	-0.20168784
139	0x03	0.023271674
140	0xda	-0.29477453
141	0x52	0.6360924
142	0x0a	0.07757225
143	0xdd	-0.27150285
144	0x05	0.038786124
145	0xe6	-0.20168784
146	0xf1	-0.11635837
147	0x26	0.29477453
148	0xed	-0.14738727
149	0x3c	0.46543348
150	0xf3	-0.10084392
151	0xf1	-0.11635837
152	0xd7	-0.3180462
153	0x10	0.124115594
154	0xd5	-0.33356065
155	0xba	-0.5430057
156	0x0e	0.108601145
157	0xfc	-0.031028898
158	0x03	0.023271674
159	0x0d	0.10084392
160	0x23	0.27150285
161	0x17	0.17841616
162	0x23	0.27150285
163	0xdb	-0.28701732
164	0xf9	-0.054300573
165	0xea	-0.17065895
166	0xfa	-0.04654335
167	0xf7	-0.069815025
168	0x02	0.015514449
169	0xfe	-0.015514449
170	0x15	0.16290171
171	0xff	-0.0077572246
172	0x0d	0.10084392
173	0xff	-0.0077572246
174	0x18	0.1861734
175	0xe5	-0.20944506
176	0x1d	0.22495951
177	0x26	0.29477453
178	0x3c	0.46543348
179	0x18	0.1861734
180	0x09	0.069815025
181	0xf2	-0.108601145
182	0x0a	0.07757225
183	0xe6	-0.20168784
184	0x02	0.015514449
185	0xf4	-0.0930867
186	0x18	0.1861734
187	0x0e	0.108601145
188	0xdf	-0.25598842
189	0x14	0.1551445
190	0x05	0.038786124
191	0x78	0.93086696
192	0xea	-0.17065895
193	0xfe	-0.015514449
194	0x46	0.5430057
195	0xc6	-0.44991902
196	0x2e	0.35683233
197	0xf2	-0.108601145
198	0xe3	-0.22495951
199	0x23	0.27150285
200	0xdb	-0.28701732
201	0x0a	0.07757225
202	0x0b	0.08532947
203	0xfb	-0.038786124
204	0xf6	-0.07757225
205	0xe6	-0.20168784
206	0x39	0.4421618
207	0x22	0.26374564
208	0x0e	0.108601145
209	0x1f	0.24047396
210	0xf2	-0.108601145
211	0xe0	-0.24823119
212	0xd7	-0.3180462
213	0xee	-0.13963005
214	0x29	0.3180462
215	0xfd	-0.023271674
216	0x0a	0.07757225
217	0xf4	-0.0930867
218	0xd5	-0.33356065
219	0x09	0.069815025
220	0x1d	0.22495951
221	0xe2	-0.23271674
222	0x0f	0.11635837
223	0xd1	-0.36458954
224	0x20	0.24823119
225	0x00	0.0
226	0x17	0.17841616
227	0x95	-0.83002305
228	0x26	0.29477453
229	0x0e	0.108601145
230	0xee	-0.13963005
231	0xf2	-0.108601145
232	0x0f	0.11635837
233	0x0e	0.108601145
234	0xfc	-0.031028898
235	0x05	0.038786124
236	0x1f	0.24047396
237	0x0f	0.11635837
238	0xf2	-0.108601145
239	0x0b	0.08532947
240	0xf8	-0.062057797
241	0x01	0.0077572246
242	0xff	-0.0077572246
243	0x19	0.19393061
244	0x13	0.14738727
245	0x21	0.25598842
246	0x01	0.0077572246
247	0x34	0.4033757
248	0xf0	-0.124115594
249	0x14	0.1551445
250	0xf6	-0.07757225
251	0xf3	-0.10084392
252	0x07	0.054300573
253	0x1e	0.23271674
254	0xee	-0.13963005
255	0xdd	-0.27150285

sequential_4/sequential_1/model1/conv2d_30/Conv2D_bias f4 [32]
0	0x3e67699a	0.22598878
1	0x3f63e75a	0.8902489
2	0xbf6cf802	-0.9256593
3	0xbee5286c	-0.44757402
4	0xbec2f780	-0.38079453
5	0xbf2383a6	-0.63872755
6	0x3e9a9a5c	0.30195892
7	0x3f607be5	0.8768905
8	0x3fa3840e	1.2774675
9	0xc0222fb0	-2.5341606
10	0x3ef59312	0.47963768
11	0x3f886a5a	1.0657456
12	0x3e290c42	0.16508582
13	0x3ee1cf42	0.44103438
14	0x3f67fafa	0.90617335
15	0xbd85e288	-0.06537348
16	0x3f2ccf98	0.6750426
17	0x403a944c	2.9153013
18	0xc01a8395	-2.4142811
19	0xbeecfb25	-0.46285358
20	0x3e0d986e	0.13827679
21	0x3fbdf1ec	1.4839454
22	0x3effb56c	0.499431
23	0xbfb6a798	-1.4269896
24	0x3e904914	0.28180754
25	0x3dabac41	0.08382464
26	0xbf3cb45f	-0.73712724
27	0xbfbae104	-1.4599919
28	0x3fc2361c	1.5172763
29	0xbdca3ad0	-0.09874499
30	0x401a91b5	2.4151433
31	0xbe527584	-0.20552641

sequential_4/sequential_1/model1/conv2d_31/Conv2D/ReadVariableOp/resource i1 [64, 1, 1, 32] scale=0.007981298 zero_point=0
0	0x1f	0.24742022
1	0xff	-0.007981298
2	0xff	-0.007981298
3	0x1c	0.22347634
4	0xfc	-0.03192519
5	0x43	0.53474694
6	0xed	-0.15164465
7	0xfe	-0.015962595
8	0xfd	-0.023943894
9	0xed	-0.15164465
10	0x23	0.27934542
11	0x18	0.19155115
12	0xee	-0.14366336
13	0x01	0.007981298
14	0x2f	0.375121
15	0xfe	-0.015962595
16	0x21	0.26338282
17	0xdb	-0.29530802
18	0xef	-0.13568206
19	0x0d	0.10375687
20	0xf7	-0.07183168
21	0xea	-0.17558855
22	0x18	0.19155115
23	0x07	0.055869084
24	0x0d	0.10375687
25	0xf7	-0.07183168
26	0x02	0.015962595
27	0xfd	-0.023943894
28	0xf5	-0.087794274
29	0x2b	0.3431958
30	0xf5	-0.087794274
31	0xef	-0.13568206
32	0xeb	-0.16760725
33	0x0a	0.079812974
34	0xe7	-0.19953243
35	0x1a	0.20751373
36	0x05	0.039906487
37	0x40	0.51080304
38	0xe6	-0.20751373
39	0xe3	-0.23145764
40	0xf2	-0.11173817
41	0xe1	-0.24742022
42	0x0d	0.10375687
43	0xf0	-0.12770076
44	0xf2	-0.11173817
45	0xf0	-0.12770076
46	0x12	0.14366336
47	0xfa	-0.047887787
48	0xc8	-0.44695267
49	0xfd	-0.023943894
50	0xec	-0.15962595
51	0x11	0.13568206
52	0x0b	0.087794274
53	0xf7	-0.07183168
54	0xdb	-0.29530802
55	0x00	0.0
56	0x02	0.015962595
57	0xf6	-0.079812974
58	0x13	0.15164465
59	0x28	0.3192519
60	0xf3	-0.10375687
61	0x1e	0.23943892
62	0xf9	-0.055869084
63	0xf9	-0.055869084
64	0x1b	0.21549504
65	0x09	0.07183168
66	0xf9	-0.055869084
67	0xe0	-0.25540152
68	0xcf	-0.39108357
69	0x0e	0.11173817
70	0xf8	-0.06385038
71	0xf6	-0.079812974
72	0x11	0.13568206
73	0xf8	-0.06385038
74	0xf3	-0.10375687
75	0x03	0.023943894
76	0xff	-0.007981298
77	0x05	0.039906487
78	0x14	0.15962595
79	0x02	0.015962595
80	0x3c	0.47887784
81	0x0a	0.079812974
82	0xe3	-0.23145764
83	0xf6	-0.079812974
84	0x13	0.15164465
85	0xe7	-0.19953243
86	0xe4	-0.22347634
87	0xf8	-0.06385038
88	0xdd	-0.27934542
89	0x23	0.27934542
90	0x04	0.03192519
91	0xf5	-0.087794274
92	0x19	0.19953243
93	0x45	0.55070955
94	0xfb	-0.039906487
95	0xe6	-0.20751373
96	0x0a	0.079812974
97	0xf4	-0.095775574
98	0x6d	0.86996144
99	0xec	-0.15962595
100	0xd5	-0.3431958
101	0x16	0.17558855
102	0x0c	0.095775574
103	0x04	0.03192519
104	0x3f	0.50282174
105	0xff	-0.007981298
106	0xcc	-0.41502747
107	0x13	0.15164465
108	0xce	-0.39906487
109	0x2d	0.3591584
110	0x08	0.06385038
111	0x03	0.023943894
112	0xdf	-0.26338282
113	0x03	0.023943894
114	0xe6	-0.20751373
115	0xed	-0.15164465
116	0x00	0.0
117	0xd0	-0.3831023
118	0xe1	-0.24742022
119	0x0f	0.11971946
120	0x0b	0.087794274
121	0x18	0.19155115
122	0xf9	-0.055869084
123	0xd6	-0.3352145
124	0xed	-0.15164465
125	0x42	0.52676564
126	0xf3	-0.10375687
127	0xf7	-0.07183168
128	0xfd	-0.023943894
129	0x07	0.055869084
130	0xf9	-0.055869084
131	0x10	0.12770076
132	0xe4	-0.22347634
133	0xfd	-0.023943894
134	0xf5	-0.087794274
135	0x01	0.007981298
136	0xf2	-0.11173817
137	0x01	0.007981298
138	0xd7	-0.3272332
139	0xf1	-0.11971946
140	0x04	0.03192519
141	0x08	0.06385038
142	0xfa	-0.047887787
143	0x19	0.19953243
144	0xe9	-0.18356985
145	0x37	0.43897137
146	0x3f	0.50282174
147	0x04	0.03192519
148	0x11	0.13568206
149	0xf0	-0.12770076
150	0xf6	-0.079812974
151	0xfb	-0.039906487
152	0x0a	0.079812974
153	0x1a	0.20751373
154	0x04	0.03192519
155	0xcb	-0.42300877
156	0xff	-0.007981298
157	0xfc	-0.03192519
158	0x00	0.0
159	0xf6	-0.079812974
160	0x42	0.52676564
161	0xf7	-0.07183168
162	0xf9	-0.055869084
163	0xff	-0.007981298
164	0xea	-0.17558855
165	0xf3	-0.10375687
166	0x28	0.3192519
167	0xfc	-0.03192519
168	0x0d	0.10375687
169	0x33	0.40704617
170	0xec	-0.15962595
171	0x0a	0.079812974
172	0x24	0.28732672
173	0x1b	0.21549504
174	0x1b	0.21549504
175	0xf0	-0.12770076
176	0xda	-0.3032893
177	0x1d	0.23145764
178	0xac	-0.670429
179	0xfe	-0.015962595
180	0x37	0.43897137
181	0xf0	-0.12770076
182	0xdf	-0.26338282
183	0x0a	0.079812974
184	0xfe	-0.015962595
185	0x10	0.12770076
186	0xf9	-0.055869084
187	0xff	-0.007981298
188	0x16	0.17558855
189	0xf6	-0.079812974
190	0x0a	0.079812974
191	0x15	0.16760725
192	0x07	0.055869084
193	0xed	-0.15164465
194	0x0f	0.11971946
195	0x0b	0.087794274
196	0xd7	-0.3272332
197	0xff	-0.007981298
198	0xf8	-0.06385038
199	0xfe	-0.015962595
200	0x13	0.15164465
201	0xf5	-0.087794274
202	0x09	0.07183168
203	0x0d	0.10375687
204	0xea	-0.17558855
205	0x00	0.0
206	0xe5	-0.21549504
207	0xe1	-0.24742022
208	0x1a	0.20751373
209	0x06	0.047887787
210	0x15	0.16760725
211	0xf8	-0.06385038
212	0xef	-0.13568206
213	0x07	0.055869084
214	0x05	0.039906487
215	0xfd	-0.023943894
216	0xf0	-0.12770076
217	0xf0	-0.12770076
218	0xfd	-0.023943894
219	0x27	0.3112706
220	0x04	0.03192519
221	0xf3	-0.10375687
222	0x00	0.0
223	0x19	0.19953243
224	0xf2	-0.11173817
225	0xf8	-0.06385038
226	0x02	0.015962595
227	0xfc	-0.03192519
228	0xef	-0.13568206
229	0x08	0.06385038
230	0xff	-0.007981298
231	0x0a	0.079812974
232	0x08	0.06385038
233	0xf7	-0.07183168
234	0xfe	-0.015962595
235	0xfc	-0.03192519
236	0x22	0.27136412
237	0x07	0.055869084
238	0x02	0.015962595
239	0xf4	-0.095775574
240	0xf8	-0.06385038
241	0xe4	-0.22347634
242	0xfd	-0.023943894
243	0x0a	0.079812974
244	0x0e	0.11173817
245	0xfc	-0.03192519
246	0x0e	0.11173817
247	0x07	0.055869084
248	0x00	0.0
249	0x05	0.039906487
250	0x04	0.03192519
251	0xfe	-0.015962595
252	0x0a	0.079812974
253	0xfb	-0.039906487
254	0x01	0.007981298
255	0xff	-0.007981298

sequential_4/sequential_1/model1/conv2d_31/Conv2D_bias f4 [64]
0	0xbe9c3357	-0.3050792
1	0x3f4dfdd2	0.80465424
2	0x3f302cac	0.68818164
3	0x3f99c8b6	1.2014377
4	0xbda29ca8	-0.07940036
5	0xbdad8af8	-0.08473772
6	0x3f7fe98c	0.9996574
7	0x3f7d0f37	0.9885134
8	0xbeb524ea	-0.35379726
9	0x3f039cb9	0.51411015
10	0x3fd58b3d	1.6683117
11	0x3f58f478	0.8474803
12	0x3e2d48f2	0.16922358
13	0xbea164d2	-0.31522232
14	0x3ea9c30d	0.33156624
15	0x3fb685a8	1.4259539
16	0xbe3bbe0c	-0.18334216
17	0x3fc19d42	1.5126116
18	0x3f6b1bfa	0.91839564
19	0x3f1919b9	0.59804875
20	0x3f3dd0f2	0.7414695
21	0xbef1598c	-0.4713863
22	0x3f89142e	1.0709283
23	0x3e4c754a	0.19966617
24	0xbefdbbe0	-0.495574
25	0xbe18a446	-0.14906415
26	0xbef4e108	-0.47827935
27	0xbf87ff21	-1.0624734
28	0xbe9b6f85	-0.3035852
29	0x3f2d3efd	0.6767424
30	0x3f944880	1.1584625
31	0xbf195458	-0.59894323
32	0x40062ce4	2.09649
33	0xbe01366a	-0.12618414
34	0x3f54cfdc	0.8312967
35	0x3d114a98	0.03547153
36	0x3e552f63	0.20818858
37	0x3f779a01	0.96719366
38	0x3f9b2b14	1.2122521
39	0x3e1d5908	0.15365994
40	0x3fc85e4c	1.5653777
41	0x3f3fa47d	0.74860364
42	0x3f127b6c	0.57219577
43	0x3e49e170	0.19714904
44	0x3f9fffe2	1.2499964
45	0x3dd1feb0	0.10253656
46	0xbf4ca302	-0.7993623
47	0x3f60bdb0	0.8778944
48	0xbfb1924e	-1.3872774
49	0x3f1c5acc	0.61076045
50	0xbed1cce1	-0.40976623
51	0x3f9bace2	1.2162135
52	0xbdafdbfe	-0.08586882
53	0x3f4cfda8	0.8007455
54	0x3eec0206	0.46095294
55	0x3fc3c9ee	1.5295999
56	0xbe08f31b	-0.13373987
57	0xbe561b23	-0.2090879
58	0x3f52224a	0.8208357
59	0x3f5b8f66	0.85765684
60	0x3ee19b90	0.44063997
61	0xbf9208e6	-1.1408966
62	0x3efaf61a	0.49015886
63	0xbef2f560	-0.4745283

sequential_4/sequential_1/model1/conv2d_32/Conv2D/ReadVariableOp/resource i1 [64, 1, 1, 64] scale=0.0062421123 zero_point=0
0	0xf3	-0.08114746
1	0xed	-0.11860013
2	0x19	0.15605281
3	0x15	0.13108435
4	0xda	-0.23720026
5	0xf9	-0.043694787
6	0xa8	-0.54930586
7	0x09	0.05617901
8	0xe3	-0.18102126
9	0xc8	-0.3495583
10	0x12	0.11235802
11	0x06	0.037452675
12	0x06	0.037452675
13	0xf2	-0.08738957
14	0x14	0.12484224
15	0x02	0.0124842245
16	0x00	0.0
17	0x0a	0.06242112
18	0x1e	0.18726337
19	0xdb	-0.23095815
20	0xf0	-0.099873796
21	0x12	0.11235802
22	0x02	0.0124842245
23	0xcf	-0.3058635
24	0xf8	-0.049936898
25	0xf4	-0.07490535
26	0xce	-0.31210563
27	0x1f	0.19350548
28	0x09	0.05617901
29	0x03	0.018726338
30	0xd8	-0.24968448
31	0xf1	-0.093631685
32	0x30	0.2996214
33	0xe3	-0.18102126
34	0x10	0.099873796
35	0x31	0.3058635
36	0x10	0.099873796
37	0xd1	-0.29337928
38	0x11	0.10611591
39	0xf2	-0.08738957
40	0xfa	-0.037452675
41	0x13	0.11860013
42	0xe5	-0.16853704
43	0x01	0.0062421123
44	0x10	0.099873796
45	0x09	0.05617901
46	0xea	-0.13732646
47	0x02	0.0124842245
48	0xfc	-0.024968449
49	0x03	0.018726338
50	0xf1	-0.093631685
51	0xf1	-0.093631685
52	0xe1	-0.19350548
53	0xf3	-0.08114746
54	0x22	0.21223181
55	0x30	0.2996214
56	0x27	0.24344237
57	0xf5	-0.06866323
58	0x11	0.10611591
59	0x1e	0.18726337
60	0x0d	0.08114746
61	0xf0	-0.099873796
62	0x0c	0.07490535
63	0x0a	0.06242112
64	0xe7	-0.15605281
65	0xd7	-0.2559266
66	0xf1	-0.093631685
67	0xf5	-0.06866323
68	0xe0	-0.19974759
69	0xfc	-0.024968449
70	0xe4	-0.17477915
71	0x07	0.043694787
72	0xda	-0.23720026
73	0x1e	0.18726337
74	0x1c	0.17477915
75	0xec	-0.12484224
76	0x03	0.018726338
77	0x02	0.0124842245
78	0x16	0.13732646
79	0x13	0.11860013
80	0x05	0.03121056
81	0x06	0.037452675
82	0xf7	-0.05617901
83	0x0d	0.08114746
84	0x09	0.05617901
85	0xf0	-0.099873796
86	0x23	0.21847393
87	0x06	0.037452675
88	0xf7	-0.05617901
89	0x0c	0.07490535
90	0x21	0.2059897
91	0xfd	-0.018726338
92	0xff	-0.0062421123
93	0xe9	-0.14356858
94	0xe1	-0.19350548
95	0xcd	-0.31834772
96	0x11	0.10611591
97	0x18	0.1498107
98	0x05	0.03121056
99	0x10	0.099873796
100	0xfc	-0.024968449
101	0x02	0.0124842245
102	0xfb	-0.03121056
103	0xfe	-0.0124842245
104	0x0c	0.07490535
105	0x12	0.11235802
106	0xf6	-0.06242112
107	0xeb	-0.13108435
108	0x12	0.11235802
109	0x08	0.049936898
110	0x1a	0.16229492
111	0xfa	-0.037452675
112	0xd0	-0.2996214
113	0xee	-0.11235802
114	0x19	0.15605281
115	0x02	0.0124842245
116	0xee	-0.11235802
117	0x1a	0.16229492
118	0xe5	-0.16853704
119	0x0e	0.08738957
120	0x0c	0.07490535
121	0xf2	-0.08738957
122	0xf4	-0.07490535
123	0x00	0.0
124	0x02	0.0124842245
125	0x07	0.043694787
126	0x0a	0.06242112
127	0xe2	-0.18726337
128	0xe1	-0.19350548
129	0xcd	-0.31834772
130	0xf1	-0.093631685
131	0x39	0.3558004
132	0xda	-0.23720026
133	0xd4	-0.27465293
134	0xd7	-0.2559266
135	0xf8	-0.049936898
136	0xdf	-0.2059897
137	0x0e	0.08738957
138	0x00	0.0
139	0x03	0.018726338
140	0x0c	0.07490535
141	0xe9	-0.14356858
142	0xf8	-0.049936898
143	0x0c	0.07490535
144	0x17	0.14356858
145	0x08	0.049936898
146	0xe7	-0.15605281
147	0xdf	-0.2059897
148	0xf7	-0.05617901
149	0xe3	-0.18102126
150	0xf5	-0.06866323
151	0xe5	-0.16853704
152	0xff	-0.0062421123
153	0x1c	0.17477915
154	0x17	0.14356858
155	0xfb	-0.03121056
156	0xf9	-0.043694787
157	0xef	-0.10611591
158	0xf0	-0.099873796
159	0xf3	-0.08114746
160	0x19	0.15605281
161	0x23	0.21847393
162	0x0e	0.08738957
163	0x10	0.099873796
164	0x3a	0.36204252
165	0x12	0.11235802
166	0xfc	-0.024968449
167	0x14	0.12484224
168	0x00	0.0
169	0xec	-0.12484224
170	0xfb	-0.03121056
171	0x06	0.037452675
172	0x02	0.0124842245
173	0xfe	-0.0124842245
174	0xee	-0.11235802
175	0xe1	-0.19350548
176	0xea	-0.13732646
177	0x07	0.043694787
178	0xe5	-0.16853704
179	0xdc	-0.22471604
180	0xe1	-0.19350548
181	0x0a	0.06242112
182	0xed	-0.11860013
183	0xe7	-0.15605281
184	0x11	0.10611591
185	0x39	0.3558004
186	0xf8	-0.049936898
187	0x01	0.0062421123
188	0xdd	-0.21847393
189	0x21	0.2059897
190	0xd9	-0.24344237
191	0xdc	-0.22471604
192	0xfc	-0.024968449
193	0x00	0.0
194	0x05	0.03121056
195	0x16	0.13732646
196	0x0b	0.06866323
197	0xf8	-0.049936898
198	0x2e	0.28713715
199	0xf7	-0.05617901
200	0x0f	0.093631685
201	0xdf	-0.2059897
202	0x03	0.018726338
203	0xf2	-0.08738957
204	0x01	0.0062421123
205	0xe5	-0.16853704
206	0x21	0.2059897
207	0xee	-0.11235802
208	0x07	0.043694787
209	0x16	0.13732646
210	0xff	-0.0062421123
211	0xee	-0.11235802
212	0x07	0.043694787
213	0xf0	-0.099873796
214	0xf3	-0.08114746
215	0xf6	-0.06242112
216	0x08	0.049936898
217	0xff	-0.0062421123
218	0xed	-0.11860013
219	0x03	0.018726338
220	0x06	0.037452675
221	0x1f	0.19350548
222	0x08	0.049936898
223	0x0b	0.06866323
224	0xf9	-0.043694787
225	0x15	0.13108435
226	0x0c	0.07490535
227	0x05	0.03121056
228	0xfe	-0.0124842245
229	0xf8	-0.049936898
230	0xff	-0.0062421123
231	0xef	-0.10611591
232	0xf3	-0.08114746
233	0x1f	0.19350548
234	0x14	0.12484224
235	0x24	0.22471604
236	0x00	0.0
237	0x00	0.0
238	0xf5	-0.06866323
239	0x1e	0.18726337
240	0xfb	-0.03121056
241	0x1f	0.19350548
242	0x17	0.14356858
243	0xeb	-0.13108435
244	0xef	-0.10611591
245	0x07	0.043694787
246	0x15	0.13108435
247	0x00	0.0
248	0x06	0.037452675
249	0x1e	0.18726337
250	0xf1	-0.093631685
251	0x03	0.018726338
252	0xf1	-0.093631685
253	0xfc	-0.024968449
254	0xde	-0.21223181
255	0x2a	0.2621687

sequential_4/sequential_1/model1/conv2d_32/Conv2D_bias f4 [64]
0	0x3ea331cc	0.3187393
1	0x3f4eca7c	0.80777717
2	0x3f93b6aa	1.154012
3	0xbe3157c0	-0.1731863
4	0xbf16abdc	-0.58855987
5	0x3f902645	1.1261679
6	0x3e9b42a6	0.30324286
7	0xbe0636ec	-0.13106889
8	0x3f193e79	0.5986095
9	0x3e85cb00	0.2613144
10	0xbe766e72	-0.24065569
11	0xbee6bd37	-0.45066234
12	0x3f46bf68	0.7763581
13	0xbf9fecee	-1.249418
14	0xbf23dfed	-0.6401356
15	0x3ed390df	0.41321465
16	0x3ce87370	0.028375357
17	0xbef0806e	-0.46972984
18	0x3da741c8	0.08166844
19	0x3f3d5092	0.73951066
20	0xbf09bb43	-0.53801364
21	0x3e6b38cf	0.2297089
22	0xbf20baa3	-0.62784785
23	0xbf5e1fe4	-0.8676741
24	0xbf5f1bdb	-0.8715188
25	0xbf593096	-0.8483976
26	0xbe40dce3	-0.18834262
27	0xbf132880	-0.57483673
28	0x3dcca432	0.09992255
29	0x3ffdd8e9	1.9831821
30	0xbf203f58	-0.62596655
31	0x3eaea178	0.34107566
32	0xbf246e53	-0.6423084
33	0xbe30f993	-0.17282705
34	0x3ef0d0c0	0.47034264
35	0x3e9bd748	0.30437684
36	0xbd6c0274	-0.057619527
37	0xbf48914f	-0.78346723
38	0x3da57bd8	0.08080262
39	0x3ec8855a	0.3916424
40	0xbeaf3776	-0.34222
41	0x3ea0618f	0.3132443
42	0xbed15b28	-0.4088986
43	0x3f909f08	1.1298532
44	0xbf45f43e	-0.7732581
45	0x3f9bba8e	1.2166307
46	0xbf4d4f20	-0.8019886
47	0x3f949469	1.1607791
48	0x3e821375	0.2540547
49	0x3f27f07a	0.65601313
50	0x3e3ea10f	0.18616126
51	0x3f5ef740	0.87096024
52	0xbec038e4	-0.37543404
53	0xbf226b5e	-0.6344508
54	0x3e159f94	0.14611655
55	0xbda22abf	-0.079183094
56	0x3df11c59	0.11772985
57	0x3e80d20e	0.2516026
58	0x3ec93d3c	0.3930453
59	0x3fdb040e	1.7110612
60	0x3f13ffac	0.57812
61	0x3f35d318	0.7102523
62	0x3f493bae	0.7860669
63	0x3f002f08	0.50071764

sequential_4/sequential_1/model1/conv2d_33/Conv2D/ReadVariableOp/resource i1 [128, 1, 1, 64] scale=0.0052651013 zero_point=0
0	0x11	0.08950672
1	0xfa	-0.031590607
2	0xf9	-0.03685571
3	0x0b	0.057916116
4	0xdf	-0.17374834
5	0x28	0.21060406
6	0x00	0.0
7	0xf6	-0.052651014
8	0xe6	-0.13689263
9	0xf8	-0.04212081
10	0x25	0.19480875
11	0x28	0.21060406
12	0xfa	-0.031590607
13	0x06	0.031590607
14	0xf6	-0.052651014
15	0x10	0.08424162
16	0xfd	-0.015795304
17	0xfa	-0.031590607
18	0xfc	-0.021060405
19	0xf9	-0.03685571
20	0xe4	-0.14742284
21	0xeb	-0.11056713
22	0xf5	-0.057916116
23	0x17	0.121097334
24	0xf9	-0.03685571
25	0xe7	-0.13162753
26	0xf7	-0.047385912
27	0xfc	-0.021060405
28	0x07	0.03685571
29	0x1e	0.15795304
30	0x1a	0.13689263
31	0x1a	0.13689263
32	0xfe	-0.010530203
33	0x09	0.047385912
34	0xf1	-0.07897652
35	0xf1	-0.07897652
36	0xee	-0.094771825
37	0xf2	-0.07371142
38	0x10	0.08424162
39	0x03	0.015795304
40	0xed	-0.10003693
41	0x5f	0.50018466
42	0x06	0.031590607
43	0xe2	-0.15795304
44	0x05	0.026325507
45	0xdd	-0.18427855
46	0xe5	-0.14215773
47	0xeb	-0.11056713
48	0x15	0.11056713
49	0x06	0.031590607
50	0xf2	-0.07371142
51	0x10	0.08424162
52	0x17	0.121097334
53	0x0e	0.07371142
54	0x04	0.021060405
55	0x03	0.015795304
56	0x25	0.19480875
57	0xff	-0.0052651013
58	0xf7	-0.047385912
59	0xdc	-0.18954365
60	0x03	0.015795304
61	0x12	0.094771825
62	0x1f	0.16321814
63	0x1d	0.15268794
64	0x46	0.3685571
65	0x10	0.08424162
66	0x01	0.0052651013
67	0xfd	-0.015795304
68	0xf3	-0.068446316
69	0x33	0.26852018
70	0xf6	-0.052651014
71	0x3a	0.30537587
72	0x10	0.08424162
73	0xff	-0.0052651013
74	0xfc	-0.021060405
75	0x16	0.11583223
76	0x67	0.5423054
77	0xd5	-0.22639936
78	0xff	-0.0052651013
79	0x2c	0.23166446
80	0x3a	0.30537587
81	0xdf	-0.17374834
82	0x0c	0.063181214
83	0x3c	0.31590608
84	0x1c	0.14742284
85	0xe4	-0.14742284
86	0xdb	-0.19480875
87	0x14	0.10530203
88	0x11	0.08950672
89	0xf7	-0.047385912
90	0xe8	-0.12636243
91	0x0f	0.07897652
92	0xee	-0.094771825
93	0xd2	-0.24219467
94	0x04	0.021060405
95	0x03	0.015795304
96	0xf4	-0.063181214
97	0xd8	-0.21060406
98	0xfd	-0.015795304
99	0xfe	-0.010530203
100	0x00	0.0
101	0x2e	0.24219467
102	0xe3	-0.15268794
103	0x17	0.121097334
104	0x1c	0.14742284
105	0xe3	-0.15268794
106	0xf1	-0.07897652
107	0x3f	0.3317014
108	0x16	0.11583223
109	0xfc	-0.021060405
110	0x1c	0.14742284
111	0xe6	-0.13689263
112	0xe9	-0.121097334
113	0x25	0.19480875
114	0xda	-0.20007385
115	0x15	0.11056713
116	0xf3	-0.068446316
117	0x20	0.16848324
118	0xfa	-0.031590607
119	0x02	0.010530203
120	0xff	-0.0052651013
121	0x0f	0.07897652
122	0x02	0.010530203
123	0x25	0.19480875
124	0xe7	-0.13162753
125	0x30	0.25272486
126	0x14	0.10530203
127	0x20	0.16848324
128	0x30	0.25272486
129	0x0f	0.07897652
130	0x1b	0.14215773
131	0xf1	-0.07897652
132	0xf8	-0.04212081
133	0xd5	-0.22639936
134	0x12	0.094771825
135	0x28	0.21060406
136	0xf6	-0.052651014
137	0x10	0.08424162
138	0x2d	0.23692957
139	0xd9	-0.20533895
140	0x0d	0.068446316
141	0x48	0.3790873
142	0x40	0.33696648
143	0x2c	0.23166446
144	0xb0	-0.4212081
145	0x10	0.08424162
146	0x15	0.11056713
147	0x15	0.11056713
148	0xe5	-0.14215773
149	0xea	-0.11583223
150	0x18	0.12636243
151	0x2b	0.22639936
152	0x0b	0.057916116
153	0xf8	-0.04212081
154	0xca	-0.28431547
155	0x15	0.11056713
156	0x21	0.17374834
157	0x66	0.53704035
158	0x12	0.094771825
159	0xee	-0.094771825
160	0x18	0.12636243
161	0xe1	-0.16321814
162	0x24	0.18954365
163	0x22	0.17901345
164	0x1b	0.14215773
165	0xcf	-0.25798997
166	0xfa	-0.031590607
167	0xe3	-0.15268794
168	0x40	0.33696648
169	0xed	-0.10003693
170	0x14	0.10530203
171	0x47	0.37382218
172	0xe2	-0.15795304
173	0x17	0.121097334
174	0x15	0.11056713
175	0xd9	-0.20533895
176	0x0d	0.068446316
177	0xfd	-0.015795304
178	0xee	-0.094771825
179	0x10	0.08424162
180	0xf3	-0.068446316
181	0x03	0.015795304
182	0x09	0.047385912
183	0x07	0.03685571
184	0xbf	-0.34223157
185	0x3f	0.3317014
186	0xf5	-0.057916116
187	0xd6	-0.22113426
188	0xf3	-0.068446316
189	0xc2	-0.32643628
190	0x06	0.031590607
191	0xe4	-0.14742284
192	0xf8	-0.04212081
193	0xdb	-0.19480875
194	0x0e	0.07371142
195	0x0f	0.07897652
196	0xce	-0.26325506
197	0xe4	-0.14742284
198	0x06	0.031590607
199	0x18	0.12636243
200	0xfa	-0.031590607
201	0xfc	-0.021060405
202	0xe5	-0.14215773
203	0xe4	-0.14742284
204	0xe3	-0.15268794
205	0x1a	0.13689263
206	0xfa	-0.031590607
207	0xb6	-0.3896175
208	0xdf	-0.17374834
209	0x15	0.11056713
210	0x1c	0.14742284
211	0xfa	-0.031590607
212	0xdf	-0.17374834
213	0x02	0.010530203
214	0x0b	0.057916116
215	0xfa	-0.031590607
216	0xfe	-0.010530203
217	0x08	0.04212081
218	0x09	0.047385912
219	0x09	0.047385912
220	0xef	-0.08950672
221	0x04	0.021060405
222	0xe4	-0.14742284
223	0xed	-0.10003693
224	0x20	0.16848324
225	0x13	0.10003693
226	0x09	0.047385912
227	0x1e	0.15795304
228	0x02	0.010530203
229	0x18	0.12636243
230	0x12	0.094771825
231	0xf5	-0.057916116
232	0x1d	0.15268794
233	0xdb	-0.19480875
234	0x14	0.10530203
235	0x0c	0.063181214
236	0xfd	-0.015795304
237	0xee	-0.094771825
238	0x13	0.10003693
239	0x01	0.0052651013
240	0x04	0.021060405
241	0xfd	-0.015795304
242	0xfe	-0.010530203
243	0xf4	-0.063181214
244	0xfd	-0.015795304
245	0xef	-0.08950672
246	0xef	-0.08950672
247	0xf4	-0.063181214
248	0xe7	-0.13162753
249	0x2a	0.22113426
250	0x13	0.10003693
251	0x19	0.13162753
252	0x05	0.026325507
253	0x08	0.04212081
254	0xe5	-0.14215773
255	0x01	0.0052651013

sequential_4/sequential_1/model1/conv2d_33/Conv2D_bias f4 [128]
0	0xbd813ea0	-0.06310773
1	0xbffbf90e	-1.968538
2	0xbf97b97d	-1.1853482
3	0x3f00db38	0.503345
4	0x3da2761a	0.07932682
5	0xbe89cace	-0.2691254
6	0xbf2bbf23	-0.67088526
7	0x3fc7745b	1.5582384
8	0x3edf180c	0.43573034
9	0xbf3c67a2	-0.7359563
10	0x3e281980	0.16415977
11	0xbdb0d43e	-0.08634232
12	0x3f8dd0d1	1.1079351
13	0xba9af7a0	-0.0011823066
14	0x3e507833	0.20358352
15	0x3f33b1bd	0.7019308
16	0xbe9817d2	-0.29705673
17	0x3e97e6b0	0.29668188
18	0x3ea4eac0	0.3221035
19	0x3f854f30	1.0414791
20	0xbf81ecc4	-1.015038
21	0x3f359aa0	0.70939064
22	0x3dc0b4ac	0.094094604
23	0x3e913ba7	0.28365824
24	0x3f44be58	0.7685294
25	0x3e0b9ec5	0.13634785
26	0x3ea554c7	0.32291242
27	0xbe312bb6	-0.1730183
28	0xbee19e1e	-0.44065946
29	0x3f000c07	0.5001835
30	0xbe676471	-0.22596909
31	0xbdc6d355	-0.09708277
32	0xbdeaf7a8	-0.11473018
33	0x3ecdb468	0.40176702
34	0x3fd4028a	1.6563275
35	0x3f43e29c	0.76517653
36	0x3ecd0240	0.4004078
37	0xbd7b6a6e	-0.061380796
38	0xbc946890	-0.018116266
39	0x3e80a4d9	0.2512577
40	0x3f20bcb4	0.6278794
41	0xbe86b318	-0.26308513
42	0x3ef11d34	0.47092593
43	0x3f1a9ee4	0.603987
44	0xbc482580	-0.012215972
45	0xbf91f6d9	-1.1403457
46	0x3e8bd64a	0.27311927
47	0xbec7c372	-0.390163
48	0xbf5fad39	-0.8737369
49	0x3f829644	1.0202107
50	0x3f5c7676	0.8611826
51	0x3f137bea	0.5761095
52	0x3f56d32c	0.8391597
53	0x3f095eea	0.5366045
54	0x3fe620f5	1.7978808
55	0x3f3cb5bd	0.7371481
56	0x3da7b0f0	0.08188045
57	0xbf7975f1	-0.9744559
58	0x3f465698	0.7747588
59	0x3fb4fa92	1.4138968
60	0x3faf3942	1.3689349
61	0x3eea169e	0.4572038
62	0xbe3cf5a4	-0.1845308
63	0xbe9b5dde	-0.30345052
64	0x3dc3cb8c	0.09560308
65	0x3fb4c557	1.4122723
66	0x3fe3ab27	1.7786607
67	0xbf204ef2	-0.6262046
68	0x3efade0a	0.48997527
69	0xbe2cbc28	-0.16868651
70	0x3eda903d	0.4268817
71	0x3f02077d	0.50792676
72	0x3dd35ef8	0.10320848
73	0x3fa0a76e	1.2551095
74	0x3fedb2d8	1.8570204
75	0xbf3616b0	-0.7112837
76	0x3fb41dcf	1.4071597
77	0x3f94f024	1.1635785
78	0x3f1fe02e	0.62451446
79	0xbf333e4d	-0.7001694
80	0xbf896bc6	-1.0736015
81	0x3e334509	0.17506804
82	0x3ece2261	0.40260604
83	0x3f7cc3eb	0.9873645
84	0x3f308207	0.68948406
85	0x3fb6802a	1.4257863
86	0xbf83cf51	-1.0297643
87	0x3e240f41	0.16021444
88	0x3f8f302a	1.1186574
89	0x3ec3e494	0.3826033
90	0x3f057e54	0.52145886
91	0x40047e7a	2.0702195
92	0xbf5064dc	-0.814039
93	0x3f2e55b7	0.6809954
94	0x3f2c6e39	0.67355686
95	0x3fc9e4b3	1.5772918
96	0x3f618b14	0.8810284
97	0x3f979aa2	1.1844065
98	0x3fb58ee9	1.4184238
99	0x3efa9b4e	0.48946613
100	0x3f40502b	0.75122327
101	0x3f7316c9	0.9495664
102	0x3f9feb90	1.2493763
103	0x3f482ccd	0.7819336
104	0x4002ec88	2.0456867
105	0x3ef27c66	0.47360533
106	0x3f3581bc	0.70901084
107	0x3ec66c55	0.38754526
108	0x3eafbf3b	0.34325585
109	0xbe4153e5	-0.1887966
110	0xbe24bcba	-0.16087618
111	0xbe91bc7c	-0.28464115
112	0x3fe60685	1.797074
113	0xbef14ad6	-0.47127408
114	0x3fd4fb15	1.6639124
115	0x3f7ad6b6	0.9798387
116	0x3ed667fe	0.41876215
117	0x3f4794f6	0.7796167
118	0x3f9dd9bb	1.2332071
119	0x3ecbe494	0.3982283
120	0x3f3069e7	0.68911594
121	0xbedab8da	-0.42719156
122	0x3f100a35	0.56265575
123	0x3eb11134	0.34583437
124	0x3e141825	0.14462335
125	0x3cac8584	0.021059759
126	0x3ee96b83	0.45589837
127	0x3fb8a5fd	1.4425656

sequential_4/sequential_1/model1/conv2d_34/Conv2D/ReadVariableOp/resource i1 [128, 1, 1, 128] scale=0.0043586837 zero_point=0
0	0x0c	0.052304205
1	0x08	0.03486947
2	0x11	0.074097626
3	0xeb	-0.09153236
4	0x25	0.1612713
5	0x0b	0.04794552
6	0x1e	0.1307605
7	0x26	0.16562998
8	0xfc	-0.017434735
9	0x20	0.13947788
10	0x0e	0.061021574
11	0xef	-0.074097626
12	0x19	0.108967096
13	0xfc	-0.017434735
14	0x12	0.078456305
15	0x0f	0.06538025
16	0x18	0.10460841
17	0x06	0.026152102
18	0x21	0.14383656
19	0xf9	-0.030510787
20	0x18	0.10460841
21	0xff	-0.0043586837
22	0x2e	0.20049945
23	0x03	0.013076051
24	0xe9	-0.10024972
25	0xdf	-0.14383656
26	0xf6	-0.043586835
27	0x0d	0.056662887
28	0x17	0.10024972
29	0xce	-0.21793419
30	0x11	0.074097626
31	0xe1	-0.1351192
32	0x21	0.14383656
33	0x32	0.21793419
34	0x04	0.017434735
35	0x16	0.09589104
36	0x49	0.3181839
37	0x07	0.030510787
38	0xfd	-0.013076051
39	0xf3	-0.056662887
40	0xe6	-0.113325775
41	0xf6	-0.043586835
42	0xf1	-0.06538025
43	0xde	-0.14819525
44	0xea	-0.09589104
45	0xf9	-0.030510787
46	0x05	0.021793418
47	0x07	0.030510787
48	0x1b	0.11768446
49	0xf0	-0.06973894
50	0xfb	-0.021793418
51	0x26	0.16562998
52	0x02	0.008717367
53	0xe2	-0.1307605
54	0xf4	-0.052304205
55	0xb9	-0.30946654
56	0x03	0.013076051
57	0xfa	-0.026152102
58	0x08	0.03486947
59	0xd6	-0.18306471
60	0x1d	0.12640183
61	0xcf	-0.2135755
62	0x33	0.22229287
63	0x2c	0.19178209
64	0x01	0.0043586837
65	0xf7	-0.039228152
66	0xe4	-0.12204315
67	0x1b	0.11768446
68	0x00	0.0
69	0x15	0.09153236
70	0x17	0.10024972
71	0xe1	-0.1351192
72	0xe6	-0.113325775
73	0x05	0.021793418
74	0x25	0.1612713
75	0x35	0.23101024
76	0xe2	-0.1307605
77	0x12	0.078456305
78	0x0f	0.06538025
79	0x29	0.17870604
80	0x17	0.10024972
81	0xd9	-0.16998866
82	0xec	-0.08717367
83	0xf3	-0.056662887
84	0xfb	-0.021793418
85	0x24	0.15691261
86	0x1a	0.113325775
87	0xd6	-0.18306471
88	0xf8	-0.03486947
89	0x36	0.23536892
90	0xed	-0.08281499
91	0xfc	-0.017434735
92	0xf0	-0.06973894
93	0xee	-0.078456305
94	0x0f	0.06538025
95	0x19	0.108967096
96	0x1a	0.113325775
97	0xee	-0.078456305
98	0x00	0.0
99	0xfa	-0.026152102
100	0xd8	-0.17434734
101	0x05	0.021793418
102	0xcb	-0.23101024
103	0xfa	-0.026152102
104	0x02	0.008717367
105	0xf9	-0.030510787
106	0x14	0.08717367
107	0x07	0.030510787
108	0xf9	-0.030510787
109	0xf4	-0.052304205
110	0xfa	-0.026152102
111	0xdc	-0.15691261
112	0x16	0.09589104
113	0xdf	-0.14383656
114	0xf8	-0.03486947
115	0x14	0.08717367
116	0xff	-0.0043586837
117	0xe5	-0.11768446
118	0xec	-0.08717367
119	0xd8	-0.17434734
120	0xfe	-0.008717367
121	0xfb	-0.021793418
122	0x01	0.0043586837
123	0xe5	-0.11768446
124	0x13	0.08281499
125	0xf4	-0.052304205
126	0xdf	-0.14383656
127	0xcb	-0.23101024
128	0xd3	-0.19614077
129	0xe4	-0.12204315
130	0xca	-0.23536892
131	0xf4	-0.052304205
132	0xd5	-0.1874234
133	0x0d	0.056662887
134	0xd4	-0.19178209
135	0xec	-0.08717367
136	0xf0	-0.06973894
137	0x05	0.021793418
138	0xe6	-0.113325775
139	0x26	0.16562998
140	0x32	0.21793419
141	0x04	0.017434735
142	0xc8	-0.2440863
143	0x03	0.013076051
144	0x07	0.030510787
145	0xf1	-0.06538025
146	0xfa	-0.026152102
147	0xdd	-0.15255393
148	0xd6	-0.18306471
149	0x12	0.078456305
150	0x2b	0.1874234
151	0x18	0.10460841
152	0xde	-0.14819525
153	0xfb	-0.021793418
154	0x03	0.013076051
155	0xe7	-0.108967096
156	0x18	0.10460841
157	0xf1	-0.06538025
158	0xfd	-0.013076051
159	0x15	0.09153236
160	0xfa	-0.026152102
161	0xed	-0.08281499
162	0x04	0.017434735
163	0x1c	0.12204315
164	0xea	-0.09589104
165	0xfd	-0.013076051
166	0xe5	-0.11768446
167	0xf3	-0.056662887
168	0x17	0.10024972
169	0xec	-0.08717367
170	0xe0	-0.13947788
171	0xf1	-0.06538025
172	0x21	0.14383656
173	0x02	0.008717367
174	0xdc	-0.15691261
175	0x0d	0.056662887
176	0xf7	-0.039228152
177	0x00	0.0
178	0xfc	-0.017434735
179	0xeb	-0.09153236
180	0x57	0.3792055
181	0xd2	-0.20049945
182	0x08	0.03486947
183	0xc5	-0.25716233
184	0xf6	-0.043586835
185	0xe0	-0.13947788
186	0x23	0.15255393
187	0x29	0.17870604
188	0xc6	-0.25280365
189	0x04	0.017434735
190	0xfb	-0.021793418
191	0x08	0.03486947
192	0xf1	-0.06538025
193	0x09	0.039228152
194	0x16	0.09589104
195	0x13	0.08281499
196	0x25	0.1612713
197	0xf8	-0.03486947
198	0x15	0.09153236
199	0x17	0.10024972
200	0xcd	-0.22229287
201	0xfa	-0.026152102
202	0x28	0.17434734
203	0x1e	0.1307605
204	0xf3	-0.056662887
205	0xf5	-0.04794552
206	0xe8	-0.10460841
207	0x07	0.030510787
208	0xf9	-0.030510787
209	0x0c	0.052304205
210	0x02	0.008717367
211	0x15	0.09153236
212	0xd1	-0.20485814
213	0xf3	-0.056662887
214	0xda	-0.16562998
215	0x21	0.14383656
216	0xf6	-0.043586835
217	0xe8	-0.10460841
218	0x1d	0.12640183
219	0x12	0.078456305
220	0xf3	-0.056662887
221	0x1a	0.113325775
222	0x05	0.021793418
223	0xfd	-0.013076051
224	0xf5	-0.04794552
225	0xf5	-0.04794552
226	0xfb	-0.021793418
227	0x15	0.09153236
228	0xf8	-0.03486947
229	0xde	-0.14819525
230	0xef	-0.074097626
231	0xed	-0.08281499
232	0xff	-0.0043586837
233	0xdd	-0.15255393
234	0x0a	0.043586835
235	0x0d	0.056662887
236	0x20	0.13947788
237	0x01	0.0043586837
238	0x10	0.06973894
239	0x0b	0.04794552
240	0xfe	-0.008717367
241	0xf7	-0.039228152
242	0xf3	-0.056662887
243	0xfe	-0.008717367
244	0xeb	-0.09153236
245	0xf5	-0.04794552
246	0xd3	-0.19614077
247	0xaa	-0.3748468
248	0xfb	-0.021793418
249	0x07	0.030510787
250	0xe5	-0.11768446
251	0x01	0.0043586837
252	0x0f	0.06538025
253	0x11	0.074097626
254	0x18	0.10460841
255	0xef	-0.074097626

sequential_4/sequential_1/model1/conv2d_34/Conv2D_bias f4 [128]
0	0xbe1d2848	-0.15347397
1	0x3f5d8a56	0.8653921
2	0x3f9047e2	1.1271937
3	0x3cc450d0	0.023964316
4	0xbe852cf8	-0.2601087
5	0xbec7752d	-0.38956586
6	0x3df4bac1	0.11949683
7	0xbf2062ca	-0.6265074
8	0xbeee7d51	-0.46579984
9	0x3f1ed63b	0.6204564
10	0xbf0e15b0	-0.5550184
11	0x3eb94b3b	0.3619021
12	0xbe9f2300	-0.3108139
13	0x3f3dc421	0.74127394
14	0xbe999ced	-0.30002537
15	0x3e550efa	0.20806494
16	0x3f3b0c2e	0.7306546
17	0xbeb653fa	-0.35610944
18	0xbf1e7dd7	-0.61910766
19	0xbeb8adf0	-0.36070204
20	0x3f54a83f	0.83069223
21	0x3ebf07ae	0.37310547
22	0x3e6f2945	0.23355587
23	0xbdf6171c	-0.120161265
24	0xbd797ba4	-0.06090893
25	0xbf8e35a5	-1.1110121
26	0xbe1ac954	-0.15115863
27	0x3ebd9c9d	0.3703355
28	0x3f13d681	0.5774918
29	0x3fdb6b7f	1.714218
30	0xbf69dfc8	-0.9135709
31	0xbe43ffa9	-0.19140495
32	0x3f2ff446	0.68732107
33	0xbe080b18	-0.13285482
34	0xbdeec81e	-0.11659263
35	0x3d85969e	0.065228686
36	0x3e2ff60e	0.17183706
37	0xbe8f938c	-0.28042257
38	0x3e8d3b04	0.27584088
39	0x3f656c5b	0.8961846
40	0x3ea950fc	0.330696
41	0x3fa5f191	1.2964345
42	0x3efebff5	0.49755827
43	0x3ebf7da3	0.3740054
44	0x3e746b07	0.23868953
45	0xbf0656a7	-0.5247597
46	0xbf9de32a	-1.233495
47	0xbf1f9910	-0.6234293
48	0xbe65b5a0	-0.22432566
49	0xbe72e0be	-0.23718545
50	0xbd92f737	-0.07176059
51	0x3f23e5ef	0.64022726
52	0x3ece5854	0.40301764
53	0x3e714f94	0.23565513
54	0xbe0b82a5	-0.13624056
55	0x3f410de5	0.75411826
56	0xbf244aaf	-0.6417646
57	0xbec396e2	-0.38201052
58	0xbe3b8a3d	-0.18314452
59	0xbf7fbd19	-0.99897915
60	0x3f297961	0.66200835
61	0x3f11c7c8	0.56945467
62	0xbe76aee1	-0.24090149
63	0x3ca94946	0.020664822
64	0xbe7f6efe	-0.24944684
65	0x3f3bd1c2	0.7336694
66	0xbd4e94a1	-0.050434712
67	0xbef3c8e0	-0.47614193
68	0xbd563598	-0.052297205
69	0x3dd476c8	0.10374218
70	0xbedd6ab8	-0.43245482
71	0xbe70b677	-0.23507105
72	0x3ebc72d1	0.36806348
73	0xbdd86a88	-0.10567194
74	0x3dbb6391	0.0914985
75	0xbec018b3	-0.37518844
76	0x3e0977fe	0.1342468
77	0xbf20ada4	-0.62764955
78	0xbe66e71e	-0.22549102
79	0x3f12384b	0.57117146
80	0x3ed37927	0.4130337
81	0xbee8a3e0	-0.45437527
82	0xbf3a8d8e	-0.72872245
83	0x3e1652e5	0.14680059
84	0x3e3982d1	0.18116309
85	0xbd315cc8	-0.043301374
86	0x3e9d8a96	0.30769795
87	0x3e1309bf	0.14359187
88	0xbed97254	-0.42470038
89	0x3f334f28	0.7004266
90	0x40039634	2.0560427
91	0x3d8a72d0	0.0676018
92	0x3f1a070a	0.6016699
93	0x3ef7bfea	0.48388606
94	0x3eb8d1ec	0.36097658
95	0x3f49d376	0.7883829
96	0x3dba2a2c	0.09090075
97	0xbb98d940	-0.00466457
98	0x3ebbd8ef	0.36688945
99	0x3f51329f	0.81717867
100	0xbe492439	-0.19642724
101	0xbf443681	-0.76645666
102	0x3f40a815	0.7525647
103	0x3f53dbec	0.8275745
104	0x3f2df4b7	0.6795153
105	0xbe4a908a	-0.197817
106	0xbd3d5f1a	-0.046233274
107	0x3ea5599e	0.32294935
108	0x3ddc6292	0.10760988
109	0x3e51b905	0.20480736
110	0xbe8adecf	-0.27123114
111	0xbebbda68	-0.36690068
112	0x3d60e040	0.05490136
113	0x3f0150da	0.50513995
114	0x3faddc86	1.3582923
115	0x3f11476e	0.5674962
116	0x3f8a1423	1.0787395
117	0x3ef353da	0.4752491
118	0x3e3fccf5	0.18730529
119	0x3ede1412	0.43374687
120	0x3e694121	0.22778751
121	0x3e0fe9fd	0.14054103
122	0x3f1c33a3	0.6101629
123	0x3e319f2d	0.17345877
124	0xbe98ab7f	-0.2981834
125	0xbf82e6a1	-1.0226632
126	0x3eb919e8	0.36152577
127	0xbf0cd233	-0.5500824
